models/recommender.pt (torch, 7749 bytes, 3 tensors)

user_embedding.weight f4 [20, 16]
00000000: 3c0e d03f 248c c03f b579 8c3f 8c5a e7bf
00000010: 58bc 813f 5631 3ebf e678 8a3e ef13 fdbf
00000020: 111c 8abf 8eb5 a53f dcc3 c43d dc60 fbbf
00000030: 981c dabe fcfe 56bf 4b6e 26bf dedd 823f
00000040: 36c0 a93f ce92 8d3e 3162 42be cfb7 74bd
00000050: 67ec 6ebe 6ac1 c23f 434f a43f 2e3d a13f
00000060: f716 6b3f dd98 733f 4963 be3e aa68 8f3f
00000070: 4c6a c93d 68b3 5cbe a1c7 c33e 75b3 7d3f
00000080: e310 8cbf 684d b0bf d51b c7be e3ed 0a40
00000090: 30c3 533f 4448 64bf c218 523f 0e0a c2be
000000a0: 43d8 92bf d692 4d3f c632 dfbe 9596 81be
000000b0: ffb4 70bf 3395 d63f 5b6b 6abf b4ae 51be
000000c0: 039b b3bf 2260 82bf eab7 adbe f8d5 0f3e
000000d0: 684a 93bf 94f0 663f 7828 c5be 3724 e4be
000000e0: a0bb 76bf de3f cd3e 0817 2bbf 5dce 3a3f
000000f0: ab5a ddbe 61ec bb3f 6993 1dbf 822e 323f
00000100: 550f e33f 06ad 2a3f a2a7 f63f b6ef 043e
00000110: 0be3 f7bd 3eef 20bf ffde 32bf 389c 803f
00000120: 2e41 15bf cc09 873f b8e4 b5be 7c76 043e
00000130: 9cba 263f f29a efbe 888c e9bf 693f 9abe
00000140: b3ae 6c3e 3d25 4dbf 9bac 72bf 0baa 6dbf
00000150: c7ad 253e 06e5 8c3f cec6 c13f 8908 dabe
00000160: 41a7 123f 52d8 343e 5159 18bf a8d3 0b3f
00000170: e39c b3bf 88d6 f0be a88e a03f 1339 0e3e
00000180: 9b32 08c0 001d 26bd 0237 a53e f5e2 233f
00000190: 494a 793e 5508 39bc e752 933f 4aed 39be
000001a0: 0071 c0be 7e2f 1c3f ce6b 693f 02f9 eabd
000001b0: 6ccd e53e 10ef 0d3f 089d 9fbd ef50 e13d
000001c0: fd96 53bf 8d18 5cbf 5d5a 0f3c 5311 433f
000001d0: 030b c73e 6147 8abd 7aef 11bb bddb 9ebb
000001e0: f0ce 1fbf 6b67 b03e 055c 15bf 3b59 1bbe
000001f0: b03f 683f 4f7b 663f 65fe 953f e87a 123f
00000200: 7f4a d43f 2ccc 343f 6da5 87bf cb16 88bf
00000210: 7478 12bf 720c a73f 39cf 873f 1c70 1a3e
00000220: 7aa1 463f dc30 033f 3717 bdbf dc56 a43f
00000230: 3bbb 133c aece c83f 52f9 1bbe a981 8a3f
00000240: 28b6 02bf 45a3 353f 434f 0a40 0a36 7f3f
00000250: 648f 773d 06d2 d73e 8f86 54bf 045b d6be
00000260: 77d5 303d 09e9 c13f e1f6 0fbe b292 953f
00000270: 602f 01c0 16b4 3ebd 7d37 67bf 9b95 d23e
00000280: 1fbe febf a5c5 17bd bc9f 403d 4c5a 23bf
00000290: 61e3 2b3f d3bc 08bf 4968 efbc 2778 b6bf
000002a0: b0d4 f9bf ac2d 6b3f 0e8f 9b3f 09b0 bf3d
000002b0: 6fcb 95bf f45e 453f 9b01 1d3f b99a da3f
000002c0: 2fc9 9bbe ae63 16be 844b 0fbe 4665 aa3e
000002d0: 69da a4bf b843 14c0 dab0 33bf 0719 31be
000002e0: 0e3d 33be 65db 7cbf 889f 0ac0 c807 183f
000002f0: 91a6 263f 708c 82bf 8d68 6b3f f697 a03e
00000300: 916c cd3f b5b5 9cbf 8ce4 173f 73dc 55bf
00000310: c391 5dbf 88f6 13bd 5cca 3e3d c55d 8f3f
00000320: fc6b eb3e 82f2 ca3f 24c8 0f3e ec95 89be
00000330: bd91 543e c120 be3f d474 323f 0675 12be
00000340: 560b b6be ec23 b1bf deef 9bbf d4ae 5cbf
00000350: 3f8c 77be efec 273e 0650 2d3d 65ae e7bf
00000360: 252b 88be 4cfb b73e 0caa dbbf be1c 833f
00000370: 8806 24be 1810 05be 5940 d63f b258 1240
00000380: 2fcb 253f 5909 963f 70af 083f 054c d6bf
00000390: 36d7 61bf 1cea f6bd a6f6 913f 8932 b43f
000003a0: 46a5 153f 99e2 edbe 5c5e e0bf 2075 91bf
000003b0: 6b0d 673f 38df 183f ff67 1b3f 45e1 ba3e
000003c0: e56c 38bf aecb 97bd af58 e1be 1627 e23e
000003d0: 86e4 98bf aea6 96be e8c5 77bd 50c1 883f
000003e0: 941f 803f 5a9d 85bf a7f7 9b3f 070a 583f
000003f0: 526b f73e b1a6 353f 8017 3e3f 6c37 093f
1.6254344 1.5042768 1.0974642 -1.8074508 1.0135603 -0.7429403 0.27045363 -1.9771708
-1.0789815 1.2946031 0.0960767 -1.9638934 -0.4259994 -0.83982825 -0.65012044 1.0223958
1.3261783 0.27651066 -0.1898277 -0.059745606 -0.23332368 1.5215275 1.2836689 1.2596796
0.91831917 0.95155126 0.37185124 1.1203816 0.09834728 -0.21552813 0.38238242 0.99101955
-1.0942653 -1.3773623 -0.38888422 2.1707695 0.8271971 -0.8917277 0.8206903 -0.37898296
-1.1472248 0.8030218 -0.43593425 -0.25310197 -0.9402618 1.6764282 -0.9157006 -0.204768
-1.4031681 -1.0185587 -0.33929378 0.14046466 -1.1507082 0.90210843 -0.38507438 -0.4455888
-0.96380043 0.4008779 -0.6683202 0.72971135 -0.43233237 1.4681512 -0.61553055 0.69602215
1.7739054 0.6667026 1.9269907 0.12982067 -0.12103852 -0.62865055 -0.69871515 1.0047674
-0.5830258 1.0549865 -0.3552606 0.12935823 0.65128493 -0.467979 -1.8246012 -0.30126503
0.23113517 -0.80134946 -0.94794625 -0.9283759 0.16179572 1.1007392 1.5138795 -0.42584637
0.5728646 0.17660645 -0.59511286 0.54619837 -1.4032253 -0.47038674 1.2543535 0.1388896
-2.1280887 -0.040555 0.3226853 0.64018184 0.24344744 -0.01129349 1.1509675 -0.18156925
-0.37586212 0.6100997 0.9118012 -0.11473276 0.44883287 0.55442905 -0.07793623 0.11001765
-0.82652265 -0.8597496 0.008749572 0.7619831 0.3887559 -0.06751896 -0.0022267983 -0.004847972
-0.62425137 0.34453902 -0.58343536 -0.15170757 0.9072218 0.90031904 1.171826 0.5721879
1.6585234 0.7062404 -1.0597359 -1.0631956 -0.57215047 1.3050673 1.0610114 0.15081829
0.77590144 0.5124643 -1.477271 1.2839007 0.009016807 1.5688074 -0.15231827 1.0820819
-0.510592 0.70952255 2.1610878 0.9969183 0.060439482 0.42152423 -0.8301782 -0.41866314
0.043172326 1.5149242 -0.1405902 1.1685393 -2.0185165 -0.046558462 -0.90319043 0.41129765
-1.990177 -0.037053723 0.047027335 -0.6380966 0.6714383 -0.5341312 -0.029224532 -1.4255418
-1.9518032 0.91866565 1.2153032 0.09359748 -1.1702708 0.7709801 0.61330575 1.7078468
-0.30426928 -0.14686462 -0.1399365 0.3328039 -1.2879153 -2.3166332 -0.7019173 -0.17294703
-0.1750376 -0.9877227 -2.165987 0.59386873 0.6509791 -1.0199108 0.91956407 0.31365937
1.6048757 -1.2242953 0.5933311 -0.83539504 -0.8655054 -0.036123782 0.046579704 1.1200491
0.45980823 1.5855258 0.14041191 -0.26872194 0.2075872 1.4853746 0.69709516 -0.14302453
-0.35555524 -1.3839087 -1.2182577 -0.86204267 -0.24174593 0.16398977 0.042312644 -1.8100096
-0.26595417 0.35933912 -1.7161269 1.0243146 -0.16018116 -0.1299442 1.6738387 2.2866635
0.6476316 1.1721603 0.53392696 -1.6741949 -0.8821901 -0.120563716 1.1403396 1.4077922
0.5845531 -0.46461943 -1.7528796 -1.1363869 0.9025485 0.59715605 0.6070556 0.36499992
-0.7204116 -0.07411896 -0.44012973 0.44170445 -1.194474 -0.29424042 -0.060491472 1.0683994
1.0009637 -1.0438645 1.2184952 0.843903 0.48324066 0.70957476 0.7425461 0.5360019

movie_embedding.weight f4 [50, 16]
00000000: b932 213f 57c6 83bf fde7 8f3f d63b d1bf
00000010: 0ddd 013f a9e8 2f3f 64c3 3ebe a6aa f73e
00000020: 713e 4e3f 9229 e13e f82c 8cbf 36be e1bd
00000030: 2303 343e ee4d c13d 70fd 46be 89f6 13bd
00000040: cc5e f13e 0da8 f53d ec82 ed3e 671e 833f
00000050: 1208 33be 4db1 9dbf 2a10 18bf 706f 8c3e
00000060: 1088 903e 0760 a23f a769 0cbf 136d 713f
00000070: 6d9f bc3f 9ba6 9abe 9b32 6dbe c5ad 9b3e
00000080: 1ea2 10be c442 1c3f 21c6 463f c6f4 debf
00000090: 4755 2ebf f604 01bf faec acbf 6e8b 0d40
000000a0: dd22 ac3f 7660 b03f 4df1 1bbf 3ddf 2abf
000000b0: 909d 16c0 5a7f 07bf cfbb 2abf e851 e13f
000000c0: cf0e 17be 58fc 9d3e c23e 0d40 17d5 ca3f
000000d0: 47c9 363e 8f9a 4e3f 34c5 cebe 3069 2d3f
000000e0: 875a c3bd 50b1 98bf 1cc1 a6bf 20f5 c93e
000000f0: 2688 0cbf c211 473f 3516 e6be 9d55 dfbe
00000100: 191e 743f c0c8 6b3e dc13 27bf a742 28be
00000110: 5a47 dc3f aa58 e6be 38eb 5fbe dcf3 cfbe
00000120: eec7 a7bf 3dcf 0ac0 e174 2fbf f4cd a13f
00000130: 1520 263f 0c69 e73d 8d21 8bbf a810 973f
00000140: dd8e 04bf ab7d c3bf 420b 50bf c325 da3d
00000150: 55ac a53f 752e f8be f8ae 0d3f d111 46be
00000160: 71a8 343f df71 acbf 693b 2f3f 1318 663f
00000170: 47e6 e0be 8239 a33d e3ff dbbe 9275 863e
00000180: d706 8d3f a004 0fbf f571 aabe 986a 17be
00000190: 9e83 86bf 4a7c a8be e377 363f 60fb 81bf
000001a0: 620f 4b3e f6c0 f2bf 3b44 b9be 7084 47bf
000001b0: 5a39 f93f d308 08be 98b9 d43e 1866 9e3f
000001c0: 7475 0ebe 65f7 c23f fd36 a0be 0147 743f
000001d0: 804e 973e 843d 8cbe 73d1 0b3e ddae ff3e
000001e0: a991 c23d 590b f3bf 9949 7bbe ff38 cbbf
000001f0: 248e 9f3d c032 423f d91b 623e f061 0dbe
00000200: 1023 01c0 57ae d3bd 9cd1 2dbf 7a60 1f3f
00000210: d0f4 63bf 7938 29bf b894 94bf 3ae5 c43e
00000220: 8623 8d3f 11d0 e03e a0e6 fabe 29fd c83e
00000230: 4a54 05bf 8d46 0dbf 1207 d4bf af75 b93f
00000240: bd5e 8c3f 8906 2fbf be41 873d c7d8 4aba
00000250: 2cf3 253e 2815 993f 0a30 a7bf 5ab5 b3bf
00000260: e9a4 87bf a488 9c3e 8082 d43e 7aa8 37bf
00000270: bb5f 3540 700b fa3f 991d 0340 d644 8bbf
00000280: 3d35 c03f 7c5d fc3e db08 cebd 88ad 0cbe
00000290: c779 42be eb76 a3be 9877 a9bf fe5e 45bf
000002a0: 39e5 65be 8198 7c3e 5db7 81be de45 9ebf
000002b0: cd7f 46bf 95bf b83e 4787 cd3c 39e5 b3be
000002c0: 207e 4d3f 51b0 d33e 5365 853f ed4c ce3e
000002d0: 0ee4 86be 220f 3fbd b20c 53bf 859e da3f
000002e0: a0ed 24bf 5148 05c0 3500 a73f 4905 903d
000002f0: 4998 1c3e 3c2d 713f 3935 81bf b1e1 aa3d
00000300: e28b a0bf 62f7 0a3f ee40 66be 6147 4ebe
00000310: fdcd 953f 679d 923b e4c9 c0be 1a17 1abf
00000320: a741 423f 6a9a 4ebf 7105 2dbe cc65 3cbf
00000330: 5990 b3bf c015 fb3e 98b7 c3bf 18b7 a4be
00000340: aa76 7e3f 2c62 9ebf e240 c73e 9c81 803f
00000350: 8f34 4d3f 9569 43c0 a9ab 86bf 6974 aebf
00000360: ca8e 583f 9e5b 3d3e 65d7 e33f 89be bb3c
00000370: 7e4b 753f 4b83 7a3f 3975 863f 46e2 3bbf
00000380: 5164 03c0 0388 c5bd 06ff b0bf 4436 823f
00000390: cffa 19bf 16ac 82bf a048 0abe af99 b93f
000003a0: 89b7 e43f c01a 6cbf f799 af3f ed6d df3f
000003b0: d29b 0fc0 1dfa cabd e36a 71bf 9f59 9f3e
000003c0: 90b2 2340 3f75 3440 edf9 5f3f bb37 afbd
000003d0: b525 09bf 93ce ae3e 7512 e0bd b22a 6fbd
000003e0: f7f2 823f 1fdb 6b3e a0bc 383f 7e69 b7be
000003f0: 8218 fb3b 1f33 3abf adac b23e a7c3 b33e
0.6296802 -1.0294904 1.1242672 -1.6346385 0.5072792 0.68714386 -0.18629223 0.48372382
0.8056403 0.43977028 -1.0951223 -0.11022608 0.17579322 0.09438692 -0.19432616 -0.036123786
0.47142637 0.11994944 0.46388948 1.0243653 -0.17483547 -1.2319733 -0.59399664 0.2742877
0.28228807 1.2685555 -0.5484871 0.9430706 1.4736153 -0.30205235 -0.23163836 0.30406013
-0.14124343 0.61039376 0.7764607 -1.7418449 -0.6809887 -0.50398195 -1.350982 2.211635
1.344814 1.3779438 -0.6091507 -0.66746885 -2.3533669 -0.529287 -0.66692823 1.7603121
-0.14751743 0.30856586 2.2069554 1.584628 0.17850219 0.8070459 -0.4038483 0.6773863
-0.09538751 -1.1929111 -1.3027682 0.39444828 -0.54895246 0.7776147 -0.44938818 -0.43620005
0.95358425 0.23025799 -0.6526468 -0.16431676 1.7209275 -0.4498952 -0.21867073 -0.40615737
-1.3107889 -2.1688988 -0.6853772 1.2640977 0.64892703 0.11299333 -1.0869614 1.1801958
-0.5178049 -1.5272726 -0.8126718 0.10651734 1.2943217 -0.48472944 0.55345106 -0.19342734
0.7056952 -1.3472251 0.6845003 0.89880484 -0.43925688 0.07969953 -0.42968664 0.26261574
1.1017712 -0.5586643 -0.33290067 -0.14786756 -1.0508916 -0.32907325 0.7127668 -1.0154839
0.19830087 -1.8965137 -0.36184868 -0.7793646 1.9470627 -0.13284616 0.41547847 1.2374907
-0.13911992 1.5231749 -0.31291953 0.95420843 0.29552078 -0.27390683 0.13654117 0.49938098
0.09500439 -1.8987838 -0.24539794 -1.5876769 0.07790783 0.7585869 0.22080936 -0.13806891
-2.017765 -0.10335987 -0.67897964 0.62256587 -0.8904543 -0.66101795 -1.1607885 0.38456136
1.1026466 0.43908742 -0.49004078 0.39255646 -0.5208174 -0.55185777 -1.6564658 1.4489039
1.0966412 -0.68369347 0.06604336 -0.0007737991 0.16206044 1.1959581 -1.3061535 -1.4039719
-1.0597202 0.30573 0.41505814 -0.7174145 2.833968 1.953474 2.0486815 -1.0880382
1.5016247 0.49290073 -0.10060283 -0.13738072 -0.18991767 -0.31926665 -1.3239622 -0.7709807
-0.22450723 0.2466755 -0.25335208 -1.2365072 -0.7753876 0.36083665 0.02508892 -0.3513582
0.80270576 0.41345456 1.0421547 0.40293065 -0.26345867 -0.04664529 -0.82441247 1.7079626
-0.64425087 -2.0825388 1.3046938 0.07032258 0.15292467 0.9420965 -1.0094367 0.083438285
-1.2542689 0.54283726 -0.22485706 -0.20144416 1.1703488 0.00447433 -0.3765403 -0.601915
0.7588143 -0.8070437 -0.16896607 -0.7359283 -1.4028426 0.4904003 -1.5290403 -0.3217094
0.99399817 -1.237371 0.3891669 1.0039554 0.80158323 -3.0533192 -1.0521137 -1.3629276
0.8459288 0.1849198 1.7800108 0.022918003 0.95818317 0.9785659 1.0504524 -0.7339214
-2.0529978 -0.09645083 -1.3827827 1.017281 -0.6014833 -1.0208766 -0.13504267 1.4500026
1.786851 -0.9222832 1.3718861 1.7455422 -2.2438855 -0.099109866 -0.9430372 0.31123063
2.5577736 2.8196561 0.8749073 -0.085555516 -0.5357316 0.3414198 -0.109410204 -0.058390327
1.0230397 0.23032807 0.7216282 -0.35822672 0.0076628337 -0.72734255 0.34897366 0.35110208

genre_embedding.weight f4 [14, 16]
00000000: cd4a 923e 513b 4abd c6cf bf3f 64be c03e
00000010: ecf5 c1bf f10a 02bf 1858 0840 3cfd c0bf
00000020: 2b29 7bbe 38a0 cb3c d75e fbbd 7443 d6be
00000030: 3b39 713f 5ccf 353f 0ed3 dc3e d184 3a40
00000040: dadd 40bf fe2c 60bb 89d9 033f 2e81 d63d
00000050: 1a8a 01bf da3c b1be cf61 4d3f 36d9 963e
00000060: 29f3 4abf 67fa f93f f210 bf3d 6281 ccbe
00000070: 7de3 dcbf 7338 043d 261f a33f a017 ad3d
00000080: d17a 82bf 83d0 b83e 4df9 2b3f 4618 3a3f
00000090: e5a6 d93f 9420 1f40 19b7 243f 16c4 f6bf
000000a0: 6c22 fc3d 08b3 65bf 570d 29bf cd73 1ebd
000000b0: a1ed b43f a603 a4bb f878 cd3c baa7 2fbe
000000c0: fa57 6b3f ce08 75bf e568 143f 9a17 e7be
000000d0: 9590 90bf ff9e b3bf 6644 2c40 758e 7e3f
000000e0: fba0 6fbf 1562 ffbe c752 89bf 4807 1c3f
000000f0: 510a 1bbf 5119 e4be 754d 733f c58a b83f
00000100: f875 393f ef29 583f 07ea 033f 2521 d13e
00000110: 5d15 dfbd 3b50 57be c5f8 b0bf 9d95 eebf
00000120: 9257 adbf b170 28bd 6c3c 143e c178 2f3e
00000130: 0212 723f d6ac 0b40 b362 9c3e 35c6 c63f
00000140: b4a5 6f3e 7020 8d3e 5422 f03e f9bd cd3f
00000150: 56e2 083d 79bd f73e dccf c23e 5174 c43f
00000160: 6b23 6dbf 30ab 96bf 9d95 063e e568 e83f
00000170: 9b8f cebe ccdd 5a3d e797 a53f 4099 0abf
00000180: 5bcd b33e 3959 f63e 815b 943f 9b1c da3e
00000190: 4713 13bf 9243 8f3f b5f2 49bf 365f abbe
000001a0: 35e4 c4bf 3f86 9f3f a592 99be 3a3d c93e
000001b0: 7e3e 093f 9815 8d3f 1ceb 63bf ef07 533e
000001c0: 2e2e 033f 635e 87bf 191d aabf ab86 7bbf
000001d0: 0d0e 943e 9cb7 edbf b26c 893f 2742 ccbf
000001e0: fca4 853f 49a1 e43e 4ae0 c1bf d502 963e
000001f0: f572 b6be fca8 38bf 27d4 02be bc2b cf3e
00000200: 694d 07bf ad6f 853e 5408 42bf c6ea b6bd
00000210: be9b 66bf 1151 9c3f f790 d83d c727 593f
00000220: 273f 5e3e 4e32 aebf 9aa9 4fbf a149 53be
00000230: 1376 0cbf 86db 49be ad30 d63e 3210 fa3f
00000240: 30e2 e5bf 1061 81bf 4c27 f13e 99dd 723f
00000250: 11f9 2e3f b333 81be 318f afbf 2b6a 72bf
00000260: 77ad 1140 e9ab 09c0 2cba 833c 06eb bbbf
00000270: 3065 94be 0a97 f2be 5b56 d9be b9a4 84bf
00000280: dc6e 60be f70a 2ebf c9cb 393f 3b3d 59be
00000290: fb8f 0e3f 5bb6 3fbf 7723 a03f ea9f 13be
000002a0: 4c3d 96be 7477 05bf e018 11bf ca5f a3be
000002b0: d4e3 c1be 8ed3 a63f 2d86 96bf 3cfa 6d3e
000002c0: b2a7 163e 16be 96bd e0b6 923e 0235 2a3f
000002d0: 6687 dcbe 3047 8cbf 7fb4 94be 7867 a13f
000002e0: a6a5 7d3e 04f7 26bf bb77 b3bf a79a d23f
000002f0: c2dd a3be 0df2 eebd d684 4ebf 0770 33be
00000300: 9c17 823f 81e0 87bf f0a9 01c0 8b88 aabe
00000310: 9651 963f f1a2 3b3f 4c97 c3be 5880 c23f
00000320: cd03 973f d0c8 653d 961e 86bf 3b0a 0ebd
00000330: 99f1 543f 9613 c33c fe63 42bf 15f8 1abe
00000340: 04f9 6b3e 3b66 95bf 448e 873f 56f5 57bf
00000350: 209e d7bf 117b f73e 5346 b6bd eae7 66bf
00000360: a942 5dbc a0a3 2b3f 5ee4 dabe 5cbc cd3f
00000370: 70ec a83f c7fe 0e40 d866 5d3d c1f8 77bf
0.28572693 -0.049372975 1.4985282 0.37645257 -1.5153174 -0.50797945 2.1303768 -1.5077281
-0.24527423 0.024856672 -0.12273949 -0.41848338 0.9422795 0.7101953 0.43129772 2.9143565
-0.7533852 -0.0034206505 0.5150381 0.10473858 -0.5060135 -0.3461674 0.8022737 0.29462594
-0.7927728 1.9529542 0.09329404 -0.3994246 -1.7256924 0.032280397 1.2743881 0.08451772
-1.019373 0.36096582 0.6717728 0.7269329 1.7004057 2.4863634 0.64341885 -1.9278591
0.12311253 -0.89726305 -0.6603598 -0.038684655 1.4135019 -0.0050053177 0.025082096 -0.17153826
0.91931117 -0.9571656 0.57972556 -0.45135194 -1.1294123 -1.4032897 2.6916747 0.9943612
-0.9360501 -0.49879518 -1.0728387 0.6094861 -0.60562617 -0.44550565 0.95040065 1.4417349
0.7244563 0.84438986 0.5152897 0.408456 -0.108927466 -0.21026699 -1.3825918 -1.8639408
-1.3542349 -0.041123096 0.14476174 0.17135908 0.9455873 2.182424 0.30544052 1.5529238
0.23403054 0.2756381 0.4690119 1.60736 0.033418976 0.48386744 0.3804921 1.5347997
-0.9263217 -1.1770992 0.1314301 1.8157011 -0.40343937 0.05343418 1.2936982 -0.5414009
0.3511761 0.48114946 1.1590425 0.4259995 -0.5745129 1.1192496 -0.78885967 -0.33471078
-1.5382143 1.2462844 -0.29994693 0.39304525 0.5361098 1.1022215 -0.89030623 0.20608495
0.5124234 -1.057568 -1.329013 -0.9825236 0.2891697 -1.8571658 1.0736296 -1.5957688
1.0440974 0.446543 -1.5146573 0.29299036 -0.3563458 -0.7213285 -0.12776242 0.40463054
-0.52852494 0.26061764 -0.7579396 -0.08931498 -0.90081394 1.221224 0.10574525 0.8482632
0.21703778 -1.3609102 -0.81118166 -0.20633556 -0.54867667 -0.19712648 0.41834012 1.9536192
-1.7959652 -1.0107746 0.47100294 0.9486938 0.68348795 -0.25234756 -1.3715574 -0.9469325
2.2762125 -2.1511176 0.016079985 -1.4681098 -0.2898345 -0.4738086 -0.42448696 -1.0362769
-0.2191729 -0.6798548 0.72576576 -0.21214764 0.55688447 -0.7488763 1.2510823 -0.14416471
-0.2934364 -0.52135396 -0.5667858 -0.3190902 -0.37869132 1.3033311 -1.1759697 0.23239988
0.14712408 -0.07360475 0.28655148 0.66487134 -0.4307205 -1.0959225 -0.29043958 1.2609701
0.24770221 -0.65220666 -1.4020914 1.6453446 -0.32005125 -0.11667261 -0.8067144 -0.17523204
1.0163455 -1.0615388 -2.0259972 -0.333073 1.1743648 0.73295504 -0.38201368 1.5195417
1.1798035 0.056099713 -1.0478084 -0.034677725 0.8318115 0.02381305 -0.75933826 -0.15133698
0.2304421 -1.1671823 1.0590291 -0.8435873 -1.6845131 0.4833608 -0.08900132 -0.9019762
-0.013504663 0.67046547 -0.42752355 1.6073108 1.3197155 2.2343004 0.054053158 -0.96863943
