models/recommender.pt (torch, 39621 bytes, 5 tensors)

user_embedding.weight f4 [11, 32]
0	0xbd8b8e24	-0.068142205
1	0x3f804514	1.0021081
2	0xbea8997a	-0.32929593
3	0xbe657d16	-0.22410998
4	0x400054ff	2.0051877
5	0xbf276404	-0.65386987
6	0xc0016bfd	-2.022216
7	0x3e355cb2	0.17711142
8	0x3feb8aea	1.8401768
9	0xbe089a1d	-0.1334004
10	0xbf163b55	-0.58684283
11	0xbf96f9a5	-1.1794935
12	0x3f61af7d	0.881584
13	0x3f88c22b	1.0684255
14	0x3fa75041	1.3071367
15	0x3fa19fde	1.2626913
16	0xbf0aa151	-0.541524
17	0xbfecfd4f	-1.8514804
18	0x3fa4ed32	1.2884886
19	0xbfd6072b	-1.6720937
20	0x3deb54c7	0.11490779
21	0xbe9c400e	-0.3051762
22	0x3ec3188c	0.38104665
23	0x3f9142a5	1.1348463
24	0xbed0668a	-0.4070323
25	0x3f7e157c	0.9925153
26	0xbfebf1bc	-1.8433146
27	0xbf446b89	-0.76726586
28	0x3f4ce55e	0.80037487
29	0x3e451963	0.19247966
30	0x3fa727b0	1.3058987
31	0xbf6d1e73	-0.92624587
32	0xbf228a8f	-0.63492674
33	0xbe465f17	-0.19372211
34	0x3fbac7fc	1.459228
35	0xbf6d2683	-0.9263689
36	0xbea72164	-0.32642663
37	0x3e9f4726	0.3110897
38	0x3eb03b96	0.3442046
39	0xbe72e89d	-0.23721547
40	0xbf382c8f	-0.7194299
41	0x3ed4e9f5	0.41584745
42	0xbf2fc7bf	-0.68664163
43	0xbed1728b	-0.40907702
44	0x3fccad38	1.5990362
45	0x3c40586c	0.011739831
46	0xc013e638	-2.3109264
47	0xbebac932	-0.36481625
48	0x3ef1fa9a	0.47261506
49	0x3f793b25	0.9735587
50	0xbfed29cd	-1.8528382
51	0xbfbe391f	-1.4861182
52	0xbff911ba	-1.9458535
53	0x3fe04eac	1.7524009
54	0xbf040d2c	-0.515826
55	0xbeb07790	-0.3446622
56	0x3f1d59f5	0.6146539
57	0x3f1702a4	0.58988404
58	0x3f2bc685	0.6709979
59	0xbff2fec0	-1.8983994
60	0x3f393683	0.72348803
61	0xbedbd2f1	-0.42934373
62	0xbf5a8c4b	-0.8537032
63	0xbfa08990	-1.2541981
64	0xbfd5e6d2	-1.6711066
65	0x3f8a4424	1.0802045
66	0xbdb1ad8b	-0.08675679
67	0xbf605da1	-0.87642866
68	0xbda60d59	-0.081080146
69	0xbf339ee7	-0.7016434
70	0xbd01accc	-0.031658933
71	0x3e52a449	0.20570482
72	0x3ebf3a67	0.37349245
73	0xbeaada6a	-0.33369762
74	0xbede6a8f	-0.43440673
75	0xbe32fb0c	-0.1747858
76	0x3f2650e6	0.6496719
77	0xbdc2cbfd	-0.09511564
78	0x3f941fd9	1.1572219
79	0x3f5f16d4	0.8714421
80	0xbff70a08	-1.9299936
81	0xbf795bb5	-0.9740556
82	0x3f5f1c9e	0.8715304
83	0xbf2c0410	-0.671937
84	0x402de283	2.7169502
85	0xbfe8ec25	-1.8197066
86	0xc01cc234	-2.4493532
87	0x3ed935d1	0.4242387
88	0xc03f4138	-2.9883556
89	0x3f1adb87	0.6049122
90	0x3ef641c4	0.4809705
91	0x3f993a43	1.1970905
92	0xbe97afc0	-0.29626274
93	0x3f1d8d09	0.6154333
94	0x3f79d10c	0.97584605
95	0x3d19409a	0.037415124
96	0xbe853216	-0.26014775
97	0xbf4d7add	-0.802656
98	0xbf05da90	-0.52286625
99	0xbfb85f88	-1.4404154
100	0x3f91e46b	1.1397833
101	0xbf0c4fdc	-0.54809356
102	0x3ff0b4bd	1.8805157
103	0xbee04c13	-0.4380804
104	0xbe668147	-0.22510253
105	0xbf2dcf7d	-0.67894727
106	0x3fbc0e76	1.4691913
107	0x3edb9903	0.42890176
108	0x3f037b0c	0.5135963
109	0x3f63e75d	0.8902491
110	0xbf0d8549	-0.552815
111	0x3fdfc80e	1.7482927
112	0x3f339860	0.7015438
113	0x3f166c6a	0.58759177
114	0xbde73948	-0.112902224
115	0xbef3d5df	-0.47624108
116	0x3e32ecc3	0.1747313
117	0xbd9e0e36	-0.07717554
118	0xbfa4542a	-1.2838185
119	0xbe6e01af	-0.2324283
120	0xbe4dc53f	-0.20094775
121	0x3fa934f3	1.3219284
122	0xbfb17d88	-1.3866434
123	0x3f3d3f84	0.7392504
124	0xbf3c54f2	-0.73567116
125	0xbfc982c2	-1.5743029
126	0xbfd463e8	-1.6592989
127	0xbf8841a7	-1.0645036
128	0xbda93972	-0.0826291
129	0x3f64df13	0.89402884
130	0x3f013376	0.5046915
131	0x3d97c2de	0.07410215
132	0xbf0e1cad	-0.55512506
133	0x3f952c6c	1.1654181
134	0xbf8210f2	-1.0161421
135	0xbee60d26	-0.44931906
136	0xbfb2a28b	-1.3955854
137	0xbeaee8f8	-0.34162116
138	0x40096499	2.146765
139	0xbff075e9	-1.8785983
140	0x3ed8e8fc	0.42365253
141	0x3f9ba7c8	1.2160578
142	0xbeb3a950	-0.35090113
143	0xbf4510c8	-0.7697873
144	0x3e987bb8	0.2978189
145	0xbff359a7	-1.9011735
146	0x3f232de0	0.63741875
147	0x3eb6a231	0.35670617
148	0x3f93f53a	1.1559212
149	0x3e540513	0.2070506
150	0x3ef7ac75	0.48373762
151	0xbfd28b9a	-1.6448853
152	0x3d19f087	0.0375829
153	0x3fd513e1	1.6646692
154	0xbfc05d6f	-1.5028514
155	0x3ee2cc86	0.44296664
156	0xbf2c3bd9	-0.6727882
157	0xbfd484d7	-1.660304
158	0x3fd17eff	1.6366881
159	0x3d998ce6	0.07497577
160	0xbcdc5553	-0.026896155
161	0x3f037eb9	0.5136524
162	0xbe71bc49	-0.23606981
163	0xbee4ae29	-0.44664124
164	0x3eae17d6	0.3400256
165	0xc01041f8	-2.2540264
166	0x3e58481c	0.21121258
167	0x3e8ea772	0.27862126
168	0xbeb31cc2	-0.34982878
169	0xbf76d3c2	-0.96416867
170	0xbfc3648a	-1.5265057
171	0xbf847475	-1.034804
172	0x3f09d4d9	0.53840405
173	0x3f4156e7	0.7552323
174	0xbd787f19	-0.060668085
175	0x3ea1cc9b	0.31601414
176	0xbd3cd636	-0.046102725
177	0xbff47d65	-1.9100767
178	0x3ddd3a58	0.10802144
179	0x3eb81103	0.3595048
180	0x3f801a20	1.0007973
181	0x3e8b15e8	0.2716515
182	0xbdb473cd	-0.0881115
183	0xbeacb4d5	-0.33731714
184	0x3d9f24a5	0.07770661
185	0xbd2d6402	-0.042331703
186	0xc024bad6	-2.5739036
187	0x3f004c0f	0.50116056
188	0x3d892682	0.06696798
189	0x3f40a632	0.75253594
190	0xbf6d1140	-0.92604446
191	0xbf39b1f1	-0.7253714
192	0x3f0c892e	0.5489682
193	0x3ef0ad1a	0.47007066
194	0xbf638603	-0.8887636
195	0xbf1802c5	-0.59379226
196	0xbf3fec33	-0.74969786
197	0xbf327e9a	-0.6972443
198	0x3f99896c	1.1995063
199	0x3ea0b59f	0.31388566
200	0x3fa78483	1.3087314
201	0x3eb321fe	0.3498687
202	0xbfa43b4e	-1.2830598
203	0xbea798a1	-0.32733634
204	0x3c89d35a	0.016824413
205	0x3f805cbb	1.0028299
206	0xbfb7c043	-1.4355549
207	0xbf28df66	-0.6596588
208	0x3f243c09	0.64154106
209	0xbf921fc7	-1.1415948
210	0xbe16f980	-0.14743614
211	0xbf9dfd8f	-1.2343005
212	0xbde3db85	-0.111258544
213	0xbf2ec2b7	-0.6826586
214	0x3db33522	0.08750369
215	0x3efc6b68	0.49300694
216	0xbeecb30a	-0.46230346
217	0xbf5bb77d	-0.85826856
218	0xbf983ba0	-1.1893196
219	0xbf811673	-1.0084976
220	0x3ab6181d	0.0013892684
221	0x3fc09151	1.5044347
222	0x3e68ac09	0.22721876
223	0xbe2b1675	-0.16707785
224	0x3e4fc041	0.20288183
225	0x40074c4d	2.114032
226	0x3e7846a0	0.24245691
227	0x3f56f126	0.83961713
228	0xbe7dc3a8	-0.24781668
229	0xbf0f89b5	-0.560695
230	0x3f827c0d	1.0194107
231	0xbe3b496d	-0.18289728
232	0x3f875abb	1.0574564
233	0x3f418ddc	0.75607085
234	0xbf03160e	-0.5120553
235	0xbf819c83	-1.0125889
236	0x3f814f95	1.0102412
237	0xc006bd70	-2.1053123
238	0x3ff3be91	1.9042531
239	0x3f97d5b6	1.1862094
240	0x3f2d085b	0.67590874
241	0xbf67b084	-0.90503716
242	0xbf87e8ac	-1.0617881
243	0x3e2aa2e7	0.16663705
244	0xbf1c46cc	-0.6104553
245	0xbe147504	-0.14497763
246	0x3f5c86df	0.86143297
247	0xc0065ebe	-2.0995326
248	0x3ef732ca	0.48280936
249	0xbeb23405	-0.34805313
250	0x3f55643e	0.8335608
251	0x3f135305	0.5754855
252	0xbe9d100f	-0.30676314
253	0xbf2d3c90	-0.67670536
254	0xbe86bf7e	-0.26317972
255	0x3eb4f065	0.35339656

movie_embedding.weight f4 [10, 32]
0	0x40121c98	2.2829952
1	0xbf6f63da	-0.93511736
2	0x3f4db599	0.8035522
3	0xbe11e836	-0.14248738
4	0xbf594d67	-0.8488373
5	0x3dba8650	0.09107649
6	0x3f2036e8	0.6258378
7	0x3f95819c	1.1680179
8	0x3f5c506e	0.86060226
9	0x3ee3012a	0.44336826
10	0xbf0273b3	-0.50957793
11	0x3d8ade57	0.06780689
12	0xbf9d4289	-1.228593
13	0x3f3f82a4	0.74808717
14	0xbf86332f	-1.048437
15	0x3dacdad5	0.084401764
16	0x3f4b88bc	0.79505515
17	0x3e76f970	0.2411859
18	0xbde7aab1	-0.11311854
19	0xbf883d73	-1.0643753
20	0xbcf8a98c	-0.030354284
21	0x3de9623e	0.11395691
22	0xbf45de49	-0.77292305
23	0x3e9d9830	0.30780172
24	0xbf9763fe	-1.182739
25	0x4029d858	2.6538296
26	0x3dadf611	0.08494199
27	0x3f7d18c0	0.9886589
28	0xbfaccac0	-1.3499374
29	0xbf0a1851	-0.53943354
30	0x3f370f87	0.7150807
31	0x3d9e701f	0.07736229
32	0x3f8cc6aa	1.0998127
33	0x3f3fc553	0.7491047
34	0xbf10c465	-0.56549674
35	0xbfe40bc2	-1.7816088
36	0x3e079c38	0.13243186
37	0x3fdcd0c9	1.7251216
38	0x3f2db264	0.6785033
39	0x3fb71caf	1.4305629
40	0x3e895eec	0.26830232
41	0x3f204ff6	0.6262201
42	0x3eb2db3c	0.34932888
43	0xc033bf11	-2.8085368
44	0xbe8be92e	-0.2732634
45	0xbef94e88	-0.48692727
46	0xbf134543	-0.5752756
47	0x3fe12f1a	1.7592499
48	0x3ec0e9fe	0.37678522
49	0x3f43e71e	0.7652453
50	0xbec9f03c	-0.39441097
51	0xbf9a3ddf	-1.2050132
52	0xbea4287f	-0.32062146
53	0x3eaa71cd	0.33289948
54	0xbe9d9dee	-0.30784553
55	0xbf281891	-0.65662485
56	0xbc30bbc3	-0.010786953
57	0xbef8097f	-0.48444745
58	0x3fb36eec	1.4018226
59	0x3d042a75	0.032267053
60	0xbf34f5b0	-0.7068739
61	0x3e4591d2	0.19293907
62	0x3f0ad08e	0.5422448
63	0xbd46bd4e	-0.04852038
64	0x3ebb1c65	0.365451
65	0xbe923c11	-0.28561452
66	0x3e99eae9	0.30062035
67	0xbfa13aad	-1.2596031
68	0xbec2a3fe	-0.3801574
69	0x3e4dbbfb	0.2009124
70	0xc00ca065	-2.1972897
71	0xbffbd453	-1.9674171
72	0x3f6b4b1a	0.9191147
73	0x3f01a09f	0.50635713
74	0xbf4ddf49	-0.8041883
75	0xbde8e834	-0.11372414
76	0xbf8d94ec	-1.1061072
77	0xbf326992	-0.6969234
78	0x3f389531	0.7210265
79	0xbed5e377	-0.41775104
80	0xbf0894de	-0.53352153
81	0xbef2386b	-0.47308668
82	0x3f40df77	0.7534098
83	0xbee23339	-0.44179705
84	0x3f3bf02b	0.7341334
85	0xbdded844	-0.10881093
86	0x3f22b341	0.6355477
87	0x3f93acc5	1.15371
88	0xbe9e45d2	-0.30912644
89	0xbd32f6bb	-0.04369233
90	0x3f24acf9	0.64326435
91	0xbf1b9172	-0.60768807
92	0xbe168182	-0.14697841
93	0xbfc31ecb	-1.5243772
94	0x3e809341	0.25112346
95	0xbf4a9252	-0.7912952
96	0xbf1a75b6	-0.6033586
97	0x3f46fb67	0.7772736
98	0x3f199ea7	0.6000771
99	0x3ebed9ad	0.37275448
100	0xbf02f57f	-0.5115585
101	0xbeb8d997	-0.36103508
102	0xbfc6fbfe	-1.5545652
103	0xbe952e14	-0.29136717
104	0x3f9017de	1.1257284
105	0x3e865793	0.2623869
106	0x3f043361	0.516409
107	0x3e84ab17	0.2591178
108	0x3bd12f8c	0.006383842
109	0x3f681f62	0.90672886
110	0x3ecd0ca9	0.4004872
111	0x3eb6db2b	0.35714087
112	0xbf176f31	-0.5915404
113	0xbe2b6e8b	-0.16741388
114	0xbe9aaedc	-0.30211532
115	0xbe4b073e	-0.19826981
116	0xbfd64999	-1.674121
117	0x3f90f596	1.1324947
118	0x3f1b1f45	0.6059459
119	0x3f2ed7b4	0.68297887
120	0xc0327ed9	-2.7889922
121	0xbf67e521	-0.90584
122	0xbff7b6e2	-1.9352686
123	0xbe2c4114	-0.168217
124	0x3e8f21c5	0.27955452
125	0xbf194491	-0.5987025
126	0xbfa62aa3	-1.2981762
127	0xbf139be5	-0.5765975
128	0x3f1dac51	0.6159106
129	0x40255699	2.5834105
130	0xbf7da6af	-0.99082464
131	0x3fec5a09	1.8464977
132	0xbf02eefb	-0.51145905
133	0xbfa809c6	-1.3127983
134	0xbf1afae8	-0.605391
135	0xbf0661ba	-0.5249287
136	0x3e806d24	0.25083268
137	0xc00841d6	-2.1290183
138	0x3e53bddf	0.20677899
139	0xbf32cd04	-0.6984408
140	0x3f815508	1.0104074
141	0xbf10b752	-0.56529725
142	0x3bde3a90	0.0067818835
143	0xbf97aef6	-1.1850269
144	0x3fcf70b3	1.6206268
145	0xbf6e34c7	-0.9304928
146	0xc000210a	-2.0020165
147	0xbfadd4f0	-1.3580608
148	0xbf49aad0	-0.78776264
149	0xbeeb6838	-0.4597795
150	0xc0029706	-2.0404677
151	0xbfa163c2	-1.2608569
152	0xbed2a50b	-0.41141543
153	0xbfba2860	-1.4543571
154	0x4010b7c1	2.2612154
155	0xbd8e5cec	-0.06951317
156	0xbf378af7	-0.7169642
157	0xbdec354d	-0.11533604
158	0x3fdf9855	1.7468363
159	0x3e81e9e2	0.2537375
160	0xbed544fc	-0.41654193
161	0x3f0b21d1	0.54348475
162	0x3eaa55f4	0.33268702
163	0xbf697f65	-0.91210014
164	0xbf7c9894	-0.98670316
165	0x3ce9813b	0.028504005
166	0xbf863964	-1.0486264
167	0x3f0093d3	0.5022556
168	0xbf8f6ce3	-1.1205105
169	0x3f897683	1.0739292
170	0xbfa5d498	-1.2955503
171	0xbf919162	-1.1372492
172	0x3f078576	0.5293802
173	0x3f66fd68	0.9023042
174	0xc0021faa	-2.0331826
175	0xbf0ff9d3	-0.56240577
176	0xbe83a637	-0.2571275
177	0x3f588564	0.8457854
178	0x3fb8b474	1.443007
179	0xbfcd00fb	-1.6015924
180	0x4002644d	2.0373719
181	0xbe913d54	-0.28367102
182	0xbf88b5f6	-1.068053
183	0x3f12be1b	0.5732133
184	0x3f3238f1	0.69618136
185	0x3f9a4fc3	1.2055591
186	0x4007b78c	2.1205778
187	0x3dee851d	0.11646483
188	0xbe0eeb40	-0.13956928
189	0x3f37e2c8	0.71830416
190	0xbf06ad3a	-0.5260807
191	0xc005b61a	-2.0892396
192	0xbf02dd0b	-0.51118535
193	0xbfc54202	-1.5410769
194	0xbf511e63	-0.8168699
195	0x3dc04baf	0.093894355
196	0xbe1c87ab	-0.15286128
197	0x3f787b40	0.97063065
198	0x3f713bb4	0.94231725
199	0xbe70c438	-0.23512352
200	0x3f8ef171	1.1167432
201	0x3ec9d50c	0.39420354
202	0xbfc9eb9d	-1.5775028
203	0xbf4e48ab	-0.8057963
204	0xbf5af0b9	-0.85523564
205	0xbf27346d	-0.6531437
206	0x3e4d3299	0.20038833
207	0x3dbd29e3	0.09236505
208	0xbe9642d2	-0.29347855
209	0xbf41a640	-0.756443
210	0xbf51a09e	-0.8188571
211	0xc00e0e5b	-2.2196262
212	0xbeaaedb6	-0.33384484
213	0xbf2dd6f7	-0.67906135
214	0x3e32edfc	0.17473596
215	0xbfbb71e2	-1.4644129
216	0xbf95fc2c	-1.1717582
217	0x3e3734c8	0.17891228
218	0x3f92d5c0	1.1471481
219	0x3f09f4d9	0.5388923
220	0x3fb9f71a	1.4528534
221	0x3f9a8aa7	1.2073563
222	0xbfc5f28e	-1.5464647
223	0x3f3a113b	0.7268254
224	0x4010d237	2.2628305
225	0xbf80731e	-1.0035131
226	0x3f129dbd	0.5727194
227	0xbf507a04	-0.8143618
228	0x3e5d093e	0.21585557
229	0x3ec7723c	0.3895434
230	0xbeb57051	-0.35437253
231	0x3fa4ddc4	1.2880177
232	0x3f51094b	0.81654805
233	0xbf6000da	-0.875013
234	0x3fc16481	1.5108796
235	0x3edea171	0.43482545
236	0x3d5cb23f	0.053880926
237	0x3f193527	0.5984673
238	0x4001e6d7	2.0297143
239	0x3f88d16f	1.0688914
240	0xbf2f8904	-0.68568444
241	0x3e764e16	0.24053225
242	0x3ee9ea59	0.45686606
243	0xbf99170a	-1.1960156
244	0xbfcc9110	-1.598177
245	0x3c028a43	0.0079675345
246	0x400cefb0	2.2021294
247	0xbf83ca9e	-1.0296209
248	0x3f9050fb	1.1274713
249	0x3e81da4d	0.25361863
250	0xbd9e9b1a	-0.07744427
251	0xbf91e06d	-1.1396614
252	0xbfa4acba	-1.2865212
253	0x3e2a4fbb	0.16631977
254	0x3f8c61bf	1.096733
255	0xbea49a4a	-0.32148963

fc1.weight f4 [128, 64]
0	0x3e5c373b	0.21505444
1	0x3de736b0	0.11289728
2	0xbd96addc	-0.0735738
3	0x3d82efcf	0.06393396
4	0xbe8fa9a6	-0.2805912
5	0x3dd225d2	0.1026112
6	0x3ba576f5	0.005049581
7	0xbe771f8f	-0.24133132
8	0x3e2a23e8	0.1661526
9	0xbbbf588d	-0.0058394135
10	0x3e2c5450	0.16829038
11	0x3e06290e	0.13101599
12	0x3e0e555a	0.13899747
13	0x3bee64ba	0.007275191
14	0x3de09d07	0.109674506
15	0x3d0761c6	0.03305223
16	0x3e1b99df	0.15195416
17	0xbd761510	-0.06007868
18	0x3e306643	0.1722651
19	0xbd87fc69	-0.0663994
20	0xbe53fd09	-0.20701994
21	0xbd0e7386	-0.03477814
22	0x3d6a30b2	0.057175346
23	0x3e20ece4	0.15715367
24	0x3df3500c	0.11880502
25	0x3c783378	0.01514899
26	0x3de9fb18	0.114248455
27	0xbc462146	-0.012092894
28	0x3e6c69d2	0.23087242
29	0xbe50e108	-0.20398343
30	0x3e182fc9	0.14861979
31	0x3d0be8d8	0.034157604
32	0x3d8ff57b	0.070292436
33	0x3d243096	0.040085398
34	0x3d71a075	0.058990914
35	0xbd8a1cc8	-0.06743771
36	0x3e4fffbf	0.20312403
37	0x3c01d2bd	0.007923779
38	0x3e0127a7	0.12612782
39	0xbc908f0b	-0.017646333
40	0xbe289f94	-0.16467124
41	0x3e1b8a13	0.1518939
42	0xbd871003	-0.06594851
43	0x3e8c20d5	0.273688
44	0xbd6e348f	-0.058155593
45	0xbc3739d7	-0.011183224
46	0x3e18c05a	0.14917126
47	0xbd48784e	-0.048942856
48	0xbd3c352b	-0.045949142
49	0x3e45b29e	0.19306418
50	0x3d921db6	0.07134573
51	0x3e145771	0.14486481
52	0xbdb8794d	-0.09007511
53	0x3e7ab197	0.24481808
54	0x3d629952	0.055322
55	0xbdc4f2b6	-0.09616606
56	0x3d99fe98	0.07519263
57	0x3d8d5655	0.06901232
58	0xbe6875aa	-0.22701135
59	0xbd1b7a5a	-0.03795848
60	0xbdbe136a	-0.09281047
61	0xbcfd84d3	-0.030947125
62	0x3deb755e	0.114969954
63	0x3d2351f5	0.039873082
64	0x3e0bf91a	0.13669243
65	0xbde72134	-0.1128563
66	0x3e2d77e4	0.16940266
67	0xbca2c4db	-0.019869259
68	0x3cc8f20e	0.024529483
69	0x3e2339a2	0.15939954
70	0xbe1d6445	-0.15370281
71	0xbc27ed8f	-0.0102495095
72	0x3d80787b	0.0627298
73	0x3b62cef0	0.0034608208
74	0x3d02a7f6	0.03189846
75	0x3e3a0a96	0.181681
76	0x3d2c0f5d	0.04200684
77	0x3c091eae	0.008369131
78	0x3d6eadc9	0.058271203
79	0x3aa8d7f2	0.001288174
80	0x3dcd5ba1	0.100272425
81	0xbd12d0dc	-0.035843715
82	0xbc425039	-0.011859947
83	0xbd619fff	-0.055084225
84	0x3d179c3c	0.03701423
85	0xbc2ece5f	-0.01066932
86	0x3dedb0d4	0.11605993
87	0x3d8d9e17	0.06914919
88	0x3db0610e	0.08612262
89	0xbda1fefb	-0.07909962
90	0x3df6c794	0.12049785
91	0x3df30f9d	0.11868212
92	0x3d9e4064	0.07727125
93	0x3d0473e3	0.03233708
94	0x3cde82a4	0.027161904
95	0x3d20298e	0.03910213
96	0xbdc883b9	-0.09790749
97	0xbcfa7523	-0.030573433
98	0x3dbd4e94	0.09243503
99	0xbe24bc36	-0.16087422
100	0xbaed818c	-0.0018120273
101	0xbd5558fd	-0.05208682
102	0x3cde0abe	0.027104732
103	0xbe3f9d40	-0.1871233
104	0xbdfe8544	-0.12427762
105	0x3daab049	0.08334405
106	0xbe4ac8d4	-0.19803172
107	0x3db8a5f5	0.09016029
108	0xbc886b4b	-0.016652724
109	0x3d3b5022	0.045730717
110	0x3cc3a8f9	0.023884283
111	0x3d391499	0.04518566
112	0xbda4068b	-0.080090605
113	0x3d9bc7d0	0.076064706
114	0x3a623e7b	0.0008630526
115	0x3e1ef510	0.15523171
116	0x3d0b943a	0.034076907
117	0x3e08d97a	0.1336421
118	0x3c477a69	0.012175181
119	0xbcb35bc6	-0.021894347
120	0xbcab7f3c	-0.020934694
121	0xbcd59b22	-0.02607495
122	0xbda4b12d	-0.08041606
123	0xbd9b3d63	-0.07580068
124	0x3d8a7e9b	0.06762429
125	0xbb4b4d93	-0.003102158
126	0xbd286b33	-0.04111786
127	0x3db27a50	0.087147355
128	0x3d099cf7	0.03359696
129	0x3d9dc37b	0.077033006
130	0x3d80379b	0.06260606
131	0x3d1c3f32	0.038146205
132	0xbb032727	-0.002001235
133	0x3d4356d4	0.047690228
134	0xbd974efd	-0.07388113
135	0xbd2351e4	-0.03987302
136	0x3d6f963b	0.05849288
137	0xbe1489e9	-0.14505734
138	0xbcec4a76	-0.0288441
139	0x3d230058	0.03979525
140	0xbc7a4155	-0.015274365
141	0x3d2d7acc	0.042353436
142	0xbdc0a17b	-0.094058
143	0xbce54506	-0.027987015
144	0x3d4f3736	0.050589763
145	0xbd287b8b	-0.041133445
146	0x3c37b48c	0.011212479
147	0x3c14ad3c	0.009074505
148	0xbc4fb564	-0.012677524
149	0xbbc68fb4	-0.006059611
150	0x3e69f2e4	0.22846562
151	0x3daab443	0.083351634
152	0x3dc34122	0.095339075
153	0x3d1047d9	0.03522477
154	0x3d85552c	0.06510386
155	0x3d684573	0.056706857
156	0x3e083814	0.13302642
157	0xbdca2a5e	-0.09871362
158	0xbd8172e9	-0.063207455
159	0x3e5a57fe	0.21322629
160	0x3cf6f668	0.030146793
161	0xbdfd3f21	-0.123655565
162	0x3ded96a4	0.11600998
163	0x3e163c68	0.1467148
164	0x3df0c520	0.117563486
165	0xbd794013	-0.06085212
166	0xbbd9e27b	-0.006649313
167	0xbcdf22e2	-0.027238313
168	0xbe3e8555	-0.1860555
169	0x3cee9681	0.0291245
170	0x3dcd96dd	0.100385405
171	0x3e10065b	0.14064924
172	0xbdad3b75	-0.08458606
173	0x3bd1a8c2	0.0063982913
174	0xbd065c16	-0.032802664
175	0xbdbca7d7	-0.092117004
176	0x3d8db0e9	0.069185086
177	0x3d833a17	0.06407564
178	0xbcf16f71	-0.029472085
179	0xbb6a06b6	-0.0035709566
180	0xbc3160fb	-0.010826345
181	0x3d41ee91	0.047346655
182	0x3ddf5915	0.10905663
183	0x3d10da17	0.035364237
184	0x3de4b029	0.111664124
185	0x3daace89	0.08340175
186	0xbdbceb4a	-0.09224565
187	0xbde6a25d	-0.11261437
188	0xbe07b5f8	-0.1325301
189	0xbd7a2260	-0.06106794
190	0x3dcb5efb	0.099302255
191	0x3cb28627	0.021792484
192	0xbcf8f837	-0.030391796
193	0xbda711ce	-0.08157693
194	0x3d3f19b0	0.046655357
195	0x3e364be7	0.17802392
196	0xbced04ee	-0.028933015
197	0x3e187889	0.1488973
198	0x3cae65dc	0.021288805
199	0xbc69d994	-0.014273066
200	0xbcceb535	-0.02523289
201	0xbd9fc463	-0.0780113
202	0xbd80fe41	-0.06298495
203	0x3df198d4	0.11796728
204	0x3dd1f32b	0.10251459
205	0xbda68c4e	-0.0813223
206	0x3dbf9d1e	0.093561396
207	0x3c5fcb94	0.013659377
208	0x3e0d862d	0.13820715
209	0x3dd40cf1	0.10354031
210	0x3cdff6a4	0.027339287
211	0x3d398953	0.04529698
212	0x3be20333	0.006897354
213	0xbc90cf4b	-0.01767697
214	0xbc05d128	-0.0081675425
215	0x3d5a5d78	0.053311795
216	0x3d0cf1b8	0.03441021
217	0xbd848c7b	-0.06472107
218	0x3d9cad12	0.07650198
219	0x3cb8a6f5	0.022540549
220	0x3e0d6dc2	0.138114
221	0xbda373f2	-0.07981099
222	0x3c9722df	0.018449245
223	0x3d753441	0.059864286
224	0xbe5736be	-0.21016976
225	0xbdb06ac6	-0.086141154
226	0xbc8e856c	-0.017397605
227	0xbd92e1e9	-0.07171995
228	0x3ce0972f	0.02741584
229	0x392d70e9	0.00016540628
230	0x3d0ae054	0.033905342
231	0xbdc37043	-0.095428966
232	0xbe2c395c	-0.16818756
233	0xbe091b2d	-0.13389273
234	0xbd466175	-0.048432786
235	0x3c44f699	0.012021684
236	0xbe42fef0	-0.19042563
237	0x3d3d4c96	0.046215616
238	0xbc8c47cb	-0.017124077
239	0xbdb5bcba	-0.08873887
240	0x3d6012d4	0.054705456
241	0x3d885974	0.06657687
242	0x3bac262a	0.005253573
243	0x3de36f1c	0.11105177
244	0xbd2d7e18	-0.04235658
245	0x3e086bc1	0.13322355
246	0xbc847227	-0.016167713
247	0xbcf7aa08	-0.030232444
248	0x3dc921e3	0.098209165
249	0xbe2f460b	-0.17116563
250	0xbe2bacea	-0.1676518
251	0xbdba85c0	-0.09107542
252	0xbdfb4e88	-0.12270838
253	0xbd72c981	-0.0592742
254	0xbd094fb4	-0.033523276
255	0x3b8f68e1	0.004376516

fc1.bias f4 [128]
0	0xbe358c94	-0.17729408
1	0x3c15ce4d	0.009143424
2	0xbd9c0510	-0.07618153
3	0xbe420960	-0.18948889
4	0x3a9cf5bf	0.0011975094
5	0xbd99896f	-0.074969165
6	0x3d51a6f7	0.05118462
7	0x3e21a000	0.15783691
8	0xbdb5af43	-0.08871319
9	0x3dab7ee9	0.083738156
10	0x3dbe6103	0.09295847
11	0x3e049cab	0.12950389
12	0x3d7cf3d1	0.06175596
13	0x3d29e666	0.04147949
14	0x3b2c99f3	0.0026336878
15	0xbe2e01d8	-0.16992891
16	0xbe31eb3c	-0.17374891
17	0xbc2b9988	-0.010473616
18	0xbe2b6ddc	-0.16741127
19	0xbda16c9f	-0.07882046
20	0xbdbbef86	-0.09176545
21	0xbda80727	-0.08204489
22	0x3dff1fc0	0.12457228
23	0xbd22f6c3	-0.03978611
24	0xbd9c3d2b	-0.07628854
25	0x3e0f17db	0.13973944
26	0x3d387007	0.045028713
27	0x3da9ebd8	0.08296937
28	0x3c8fcde9	0.01755424
29	0xbe0a364d	-0.13497277
30	0xbd7bfd6c	-0.06152098
31	0xbe0dff88	-0.13867009
32	0x3d89ebfc	0.067344636
33	0xbae412e5	-0.001740065
34	0xbdd69c55	-0.10479037
35	0x3dcf4749	0.101210184
36	0xbdd4b006	-0.10385136
37	0xbd48cb4c	-0.049022004
38	0xbc29e88a	-0.010370383
39	0xbe1de119	-0.15417899
40	0xbe21df58	-0.15807855
41	0x3da28434	0.07935372
42	0xbb7754e2	-0.0037739803
43	0xbde2d685	-0.110760726
44	0x3d210ea0	0.039320588
45	0xbd0fe16d	-0.035127092
46	0xbc9090a3	-0.017647093
47	0x3dedf6d2	0.11619343
48	0x3c84bb22	0.016202513
49	0xbd388443	-0.04504801
50	0x3bcebdd2	0.0063092494
51	0xbe491838	-0.19638145
52	0x3e281fde	0.16418406
53	0xbd84cc8b	-0.06484326
54	0xbcf6f2eb	-0.03014513
55	0x3e02a0df	0.1275668
56	0xbd5be790	-0.053687632
57	0x3d50c1b4	0.05096598
58	0x3e0eaf62	0.1393409
59	0x3cbc6765	0.022998521
60	0xbcd7f607	-0.026362432
61	0xbdd6c64c	-0.10487041
62	0x3ddb36d2	0.107038155
63	0xbda1af01	-0.078947075
64	0x3b9cd4bf	0.0047861035
65	0x3c98c92a	0.01865061
66	0xbceef579	-0.029169785
67	0xbdff7fb7	-0.124755315
68	0xbe294a01	-0.16532136
69	0xbd716c65	-0.058941264
70	0xbc9fdd0a	-0.01951458
71	0xbe569130	-0.20953822
72	0x3cf62cec	0.030050717
73	0xbdcc1576	-0.09965031
74	0x3e18d07f	0.14923285
75	0xbc3d01a6	-0.011536038
76	0xbd2d3644	-0.04228808
77	0xbce76cf8	-0.028250203
78	0xbd12a58a	-0.0358024
79	0xbd329003	-0.04359437
80	0x3e1b5dcb	0.15172498
81	0xbcb4fed4	-0.022094168
82	0xbd0a3cdd	-0.03374945
83	0xbd7f918d	-0.062394667
84	0xbbf97ce0	-0.007613763
85	0xbd61dc15	-0.055141527
86	0xbdb94600	-0.090465546
87	0x3e0769e6	0.13223991
88	0xbda83f79	-0.082152314
89	0xbe288811	-0.16458155
90	0xbe67af34	-0.22625428
91	0x3de9e559	0.11420698
92	0xbe536b2c	-0.20646352
93	0xbde3101e	-0.110870585
94	0xbe25295d	-0.1612906
95	0xbce7a329	-0.028276043
96	0x3d1245cf	0.035711106
97	0x3e03351f	0.12813233
98	0x3b08c608	0.002086999
99	0xbe042ecf	-0.12908481
100	0xbe13e1be	-0.14441583
101	0xbe6e5e0b	-0.23278062
102	0x3d843295	0.0645496
103	0xbe598781	-0.21243097
104	0x3e011546	0.12605771
105	0xbd7017da	-0.058616497
106	0x3e461165	0.19342573
107	0x3b0f9968	0.0021911506
108	0xbdb9ddec	-0.09075531
109	0xbcc23061	-0.02370471
110	0x3db3e173	0.087832354
111	0x3dfc71a1	0.123263605
112	0x3e066643	0.13124947
113	0xbcb25c50	-0.021772534
114	0x3e1a2bc5	0.15055759
115	0x3d601a6e	0.054712705
116	0x3d5f4cb8	0.054516524
117	0xbe2453eb	-0.16047637
118	0x3dce8ff3	0.1008605
119	0xbd120b71	-0.035655443
120	0x3bc0dbea	0.005885591
121	0x3e0b6050	0.13610959
122	0x3e248c35	0.1606911
123	0xbdd29703	-0.102827094
124	0x3db2a3ee	0.08722673
125	0xbd9cf593	-0.07664027
126	0x3dfa7568	0.12229425
127	0x3d26c710	0.040717185

fc2.weight f4 [1, 128]
0	0x3cf22917	0.029560609
1	0x3a2694a2	0.00063545455
2	0x3d105a42	0.035242327
3	0x3cce7e52	0.025206719
4	0x3c5bd50a	0.013417492
5	0x3d6fc12c	0.058533832
6	0x3dc8974b	0.09794482
7	0x3e014bd9	0.1262659
8	0x3d856c0e	0.065147504
9	0x3dc3222e	0.09528004
10	0x3dafae36	0.0857815
11	0x3d8d16f2	0.06889142
12	0x3d621188	0.0551925
13	0x3cbd789f	0.023128806
14	0x3d999e69	0.075009175
15	0x3cb10f72	0.02161381
16	0x3d00c444	0.031437173
17	0x3dc16dbc	0.09444758
18	0x3dda9498	0.10672873
19	0x3c9cb2fc	0.019128315
20	0x3d773272	0.060350843
21	0x3db7d29e	0.08975719
22	0x3dacce92	0.08437838
23	0x3d668b34	0.0562851
24	0x3c663113	0.014049786
25	0x3d3c1777	0.045920815
26	0x3d7162a2	0.058931954
27	0x3d875b27	0.06609183
28	0x3c9160f1	0.01774642
29	0x3cc15823	0.023601597
30	0x3d3faca5	0.046795506
31	0x38d2e415	0.00010056064
32	0x3db6b882	0.08921911
33	0x3dbfeca4	0.093713075
34	0x3d4a26a6	0.049353264
35	0x3db6ebdc	0.08931705
36	0x3dd68efb	0.1047649
37	0x3dd27eee	0.10278116
38	0x3d316070	0.04330486
39	0xbabb4592	-0.0014287701
40	0xbc673227	-0.014111078
41	0x3db88fc6	0.090117976
42	0x3cc69fc7	0.02424611
43	0x3d51cf1a	0.051222898
44	0x3cc45d53	0.023970282
45	0x3d98c4a0	0.07459378
46	0x3d9219c1	0.071338184
47	0x3dfb3127	0.122652344
48	0x3def69f9	0.116901346
49	0x3db31a13	0.08745208
50	0x3db7971c	0.08964369
51	0x3d94ea98	0.07271308
52	0x3d83f1b2	0.06442584
53	0x3d911a95	0.07085148
54	0xbd889d8c	-0.06670675
55	0x3ddd43b3	0.10803928
56	0x3d93d6c2	0.07218696
57	0x3d6ab010	0.057296813
58	0x3dbd58e7	0.092454724
59	0x3d519589	0.051168
60	0x3df7e38c	0.12103948
61	0x3c2cad44	0.010539357
62	0x3e0f0398	0.13966215
63	0x3bbdd895	0.005793641
64	0x3d9b6224	0.07587078
65	0x3d5f77b7	0.05455753
66	0x3cb8d1ef	0.022561042
67	0x3d3fecb8	0.046856612
68	0x3d01f5fc	0.03172873
69	0x3d6c8458	0.0577434
70	0x3de60515	0.11231438
71	0x3bbd907a	0.005785045
72	0x3da9d7fd	0.082931496
73	0x3d0ca792	0.034339495
74	0x3d8d4417	0.06897753
75	0x3d58ce63	0.0529312
76	0x3dc62575	0.09675113
77	0x3dd90fb2	0.10598697
78	0x3dbb8646	0.0915647
79	0x3d013402	0.03154374
80	0x3d6d3f48	0.057921678
81	0x3d76df94	0.060271814
82	0x3dc7366a	0.097271755
83	0x3d139e73	0.03603978
84	0x3dda4e5e	0.106594786
85	0x3d3c2c5f	0.045940753
86	0x3d4644e8	0.048405558
87	0x3cf4fe42	0.029906396
88	0x3d43ea44	0.047830835
89	0x3de3b691	0.11118806
90	0x3c8b9d42	0.01704276
91	0x3dbe4d93	0.0929214
92	0x3cef64cb	0.029222867
93	0x3dc65f1b	0.09686109
94	0x3d58a224	0.052889004
95	0x3d559212	0.052141257
96	0x3dc65f89	0.09686191
97	0x3d47915a	0.048722602
98	0x3d641404	0.05568315
99	0x3d47c61b	0.048772912
100	0x3d597768	0.05309239
101	0x3d027920	0.031853795
102	0x3e084a10	0.13309503
103	0x3c92d6dc	0.017924719
104	0x3d6fab17	0.058512773
105	0x3d5c8d28	0.053845555
106	0x3deb8c2d	0.11501346
107	0x3d53edcd	0.051740456
108	0x3d05e0e8	0.03268519
109	0x3d96dacc	0.07365951
110	0x3d014c99	0.03156719
111	0x3daa3a4f	0.08311903
112	0x3d200525	0.039067406
113	0x3d573ab5	0.05254622
114	0x3d95a332	0.07306518
115	0x3dd6a7a8	0.10481197
116	0x3b7947c6	0.0038037165
117	0x3d87cf36	0.06631319
118	0x3cfffbb2	0.031247947
119	0x3d3a1e62	0.04543913
120	0x3d3dff77	0.04638621
121	0x3e124d3c	0.14287275
122	0x3d3f27f5	0.046668965
123	0x3cba6aa4	0.022755928
124	0x3dcaa692	0.09895052
125	0x3d593278	0.053026646
126	0x3d4219d4	0.047387913
127	0x3df3532a	0.11881097
