models/recommender.pt (torch, 7749 bytes, 3 tensors)

user_embedding.weight f4 [20, 16]
00000000: 118d a6bf 81de b7bf 8f63 cbbf e664 97bd
00000010: 3d32 76be c824 c8be d15a aebf 17ca 5abf
00000020: f7f1 c13e bc42 5fbe 8739 193e 8a75 5a3f
00000030: f063 6c3f 5243 03bf bca2 a93f 33a1 10bd
00000040: 7980 c6bf 9416 29be 39c4 ee3f 7395 b03f
00000050: c8ba 29be d20c 8abf 771c 51bf 35a2 853e
00000060: a43a 3cbf 460d 6cbf 72b6 a53f 3ffa a43f
00000070: e4e3 6c3f e1c6 283f 2180 2b3f e1d3 fa3d
00000080: 0c14 033f d61d 7cbf 86d4 06bf b9a2 d43e
00000090: 37f0 83be 59ba 86bf 8a54 1b3f bc3a f53e
000000a0: 41c5 adbf 255e dd3f f2ae fabe 6b6a 25bf
000000b0: 5184 71bf 2408 753f 4096 823f 1c5f f6be
000000c0: a89b 92bf 6eb7 af3d a597 8dbd ea82 fb3f
000000d0: 65e5 0d3f 1831 86bf 3458 083e 6dfc c3bf
000000e0: 2b24 fabd e08f 153f a2bb 46bf 9f90 de3f
000000f0: 2c87 863e 376b 3c3d 8da0 18bf fb00 bf3f
00000100: 8121 e63e 4951 ecbf 2ff4 b8bf df89 483f
00000110: 1f0e e43f 1e04 8d3f 22b1 56bf 051e 0dbf
00000120: f76d 4dbf c512 3f3f 6738 393f 552d df3f
00000130: 76a1 89bf aa84 a1bf 74ce f8bf 39bb 9a3f
00000140: d3de 693f bb7d ea3e 51c3 90bf 6c2b d6be
00000150: aba0 ecbf 8b8f 703e 8507 943f 1ac2 443f
00000160: 88e4 123f 0e05 05bf a9fd a6bd d855 5abd
00000170: 23d9 923f 774e fb3f 8ee2 8cbe bc44 d83e
00000180: e424 a63f fa27 a8be 454e 9e3f 5138 673f
00000190: d057 84bf a203 c7bf 183f a13e 07bf 60bd
000001a0: 6c36 c0bf dbf0 edbe 46b1 0040 7b6c 0ebe
000001b0: 87b9 343e d064 923e 44c9 ddbe 36a2 563f
000001c0: 2445 7e3f acfd 5bbe efff 7ebe 2093 cebf
000001d0: 06a9 c9bf 54bf f3be 71a6 48bf 58f8 1c3f
000001e0: c926 3e3e 3eaf 553f 0ad5 583f a226 463f
000001f0: 8d8d b2bf 9101 ddbe 5c9f 5ebf fe74 0a40
00000200: 18bc 653f 8680 683e 0a54 3b3f b66c e03e
00000210: 88f3 b03f cced b93f 6ca4 803f 81a9 853f
00000220: f197 2140 862b cfbe 6530 82bf ff0a cabe
00000230: 81c7 3a3f 2b47 cbbf 9bd1 e13f f618 8fbf
00000240: 10a4 55be 55b9 aebf d67a 8f3f 0d68 d93f
00000250: a237 783f 9e14 a63f 6e92 20bf c51b 23c0
00000260: ee50 b8bf 6b14 92bd 644b 243f d51c ba3e
00000270: a60c af3f 526d 563f 1d68 473f 9a94 1a3e
00000280: 394b 3bbf a1eb c43f f725 12c0 8805 8b3f
00000290: 210d 5b3f 6fa5 c13f c17a 373f ef8b d43e
000002a0: 5355 ef3e 4f24 4cbe df3a 0c3f 6bc7 a9be
000002b0: caae 5cbf 12fa 19bf 4b00 6e3f 1933 043f
000002c0: f001 a83f 0d7c 69bf 24de b23e 0419 92bf
000002d0: 6b47 0d3f 8cf9 613f 81d7 063d c03e 523f
000002e0: 7cb7 91bf 3ccd 313f 5a16 b53f 7ca7 d7be
000002f0: fa9b ae3e e645 a83d 7508 44bf a617 99bf
00000300: b3aa f7be 5b47 63bf 5d93 4abe 26f5 4e3f
00000310: d44b 683f 7745 73bc b468 a1bf 64ac c6bc
00000320: dde6 0b3f d2b6 473f b6b9 653f 32c0 583f
00000330: c99f a73e b1c4 36bf ff37 bc3e b243 163e
00000340: 7bbf f83c 3579 043f e6fd 203f a914 56be
00000350: 4f7d 843e 3ebc 78bf 2ce3 3cbf 2555 1cbf
00000360: 3006 ca3f 7ec7 e13e 39c4 19bf e089 01bf
00000370: 5d99 b33f 07db 933f e26e a9be 11c5 1c3f
00000380: 8cdd 9fbf fe9f 683f b7bd 27be e10b b43f
00000390: c0d9 30be 3fc0 b0be 42c6 a5be 2773 e13f
000003a0: 5c4f 1ebd 0b21 273e 0290 933f 1860 883e
000003b0: 3089 2640 005b 8a3f 5796 29bf 870c a1be
000003c0: 24b0 80bd cbc0 b7bf 7688 29be aee5 e23d
000003d0: 268a bd3e f6c9 d0bf 5d7a 1bbd 4202 46bf
000003e0: 3d62 4bbf 132b efbf 6e6f 94bf c379 a5bf
000003f0: 526a f43f 9692 4fbf 4cfc 12c0 4ddd 10c0
-1.30118 -1.4364778 -1.5889758 -0.07392292 -0.24042602 -0.39090562 -1.3621465 -0.85464615
0.37879917 -0.21802801 0.14963351 0.853356 0.9233999 -0.512746 1.3252788 -0.03530998
-1.5507957 -0.16512519 1.8653632 1.3795608 -0.16575158 -1.0785162 -0.8168406 0.26100317
-0.7352698 -0.92207754 1.2946303 1.2888869 0.92535233 0.65928465 0.66992384 0.12247444
0.51202464 -0.98483026 -0.52668035 0.41530398 -0.25769207 -1.0525619 0.6067587 0.47896373
-1.3575822 1.7294356 -0.48961598 -0.64615506 -0.94342524 0.95715547 1.0202103 -0.48119438
-1.1453753 0.08579908 -0.069136895 1.9649327 0.55428153 -1.0483732 0.13314897 -1.5311409
-0.1221393 0.5842266 -0.77630055 1.7387885 0.26275003 0.046000686 -0.5961998 1.4922174
0.44947436 -1.8462306 -1.4449519 0.78335375 1.781681 1.1016881 -0.83864033 -0.5512393
-0.8024592 0.74638015 0.7235169 1.7435709 -1.0752399 -1.2618611 -1.9438004 1.2088386
0.9135563 0.4579905 -1.1309606 -0.41830003 -1.8486532 0.23492257 1.1564795 0.76858675
0.5737996 -0.5196084 -0.081538506 -0.053304523 1.1472515 1.963332 -0.27516598 0.4223994
1.2980008 -0.32843 1.2367636 0.90320307 -1.0339298 -1.5547984 0.3149345 -0.054869678
-1.5016608 -0.4647282 2.01082 -0.1390857 0.17648898 0.2859254 -0.43317616 0.83841264
0.9932425 -0.21483487 -0.24902318 -1.6138649 -1.5754707 -0.4760691 -0.7837897 0.6131644
0.18569483 0.83470523 0.8470007 0.774027 -1.3949448 -0.43165258 -0.86961913 2.1633906
0.89740133 0.22705278 0.7317511 0.4383294 1.382432 1.4525695 1.0050178 1.0442353
2.5248988 -0.40462893 -1.0171019 -0.39461514 0.7296067 -1.5881094 1.7642092 -1.1179492
-0.20863366 -1.3650309 1.1209362 1.6984879 0.9695989 1.2975042 -0.62723434 -2.54857
-1.4399698 -0.07132801 0.64177537 0.36350122 1.3675735 0.8376056 0.7789324 0.1509575
-0.73161656 1.5384408 -2.2835672 1.0861063 0.8556691 1.5128611 0.7167168 0.4151301
0.46744785 -0.19935726 0.5477733 -0.33159956 -0.86204207 -0.601472 0.929692 0.5164047
1.3125591 -0.9120491 0.34935105 -1.1413884 0.551871 0.88271403 0.032920364 0.82127
-1.138412 0.6945379 1.4147446 -0.42119968 0.34103376 0.08216457 -0.76575404 -1.1960342
-0.4837242 -0.88780755 -0.19782777 0.80842817 0.90740705 -0.014848105 -1.2610078 -0.024252124
0.54649144 0.78013337 0.897365 0.84668267 0.32739094 -0.7139388 0.36761472 0.14674261
0.030364743 0.5174745 0.6288742 -0.20906319 0.25876853 -0.97162235 -0.73784137 -0.6106742
1.5783138 0.44097513 -0.60065037 -0.50601006 1.4031178 1.1551217 -0.3309241 0.612382
-1.2489486 0.9086913 -0.16380964 1.4066125 -0.17270565 -0.34521672 -0.3237782 1.7613267
-0.0386499 0.16321199 1.1528323 0.26635814 2.6021233 1.0809021 -0.66245025 -0.3145487
-0.06283596 -1.4355711 -0.16555962 0.11078964 0.3701946 -1.6311634 -0.03795849 -0.77347195
-0.79446775 -1.868502 -1.1596506 -1.2927784 1.9094946 -0.8108305 -2.296649 -2.2635071

movie_embedding.weight f4 [50, 16]
00000000: 85e0 603e 30d4 743f 8398 09be 4d65 ae3f
00000010: 167e b53e 8af6 c7bf 5cd2 d63f 7b2e 58be
00000020: c78e 953e 9e16 253f e39e 0a40 e34a c73e
00000030: eba8 c43f 245a 5fbe 3286 0bbf b32a 983e
00000040: 8d25 85bf 2d64 9abf fe54 653f e008 8b3f
00000050: 1022 e5be 1a6f 953f 4733 8a3f b6c9 37bf
00000060: dd56 3dbe 0186 ad3e e266 bc3f 4c6e 42bf
00000070: 2e4a c33e 84cf 993f 8545 48bf a9f7 18bf
00000080: 4d62 ea3e 635f 5e3f 41a5 ccbf 1f5c 83be
00000090: c31f 473e cb94 bb3f 0803 14ba d439 86be
000000a0: fb40 e93e de17 dd3c c297 c93d 8a82 a9be
000000b0: 6c06 b83e 0ba0 053f 3ec0 d23e 50ac e7be
000000c0: 0f7c 0140 f296 9b3f a6a5 883e 444d 6c3f
000000d0: 2c30 883e bc37 d3bf ef15 033f 0d06 85bf
000000e0: 9028 e8bf 3e5d 2e3f 7171 b0bf e6e4 b7bd
000000f0: 7850 443e 95f0 d5bf a4c9 2440 941e 69bf
00000100: f3d3 0e40 4fc7 e13e 64a1 0d3f e5aa 26bf
00000110: ea43 5f3f ddab b43f 38e3 e7bf 7830 68bf
00000120: afc1 e23f 54c6 15c0 c9ef 1e3f f073 96bf
00000130: 7ce0 3cbe 9f50 7e3f 9e07 ca3d 6ecc 6abf
00000140: 9067 8b3f 5af2 3ec0 6971 913e 03f6 053f
00000150: 501b 1340 1970 b8bf c619 993f f3ea c0be
00000160: 182b 513f f6c3 d23f e4c8 0dbf 6a9c 243f
00000170: b59c cdbf 4c93 0b40 9084 c8bd 06a0 8d3e
00000180: c05c 9abf 374d 23bf 00c1 33bf 7c75 293f
00000190: d841 3f3e 9bd7 75bf 69f0 8abf e4a8 dabd
000001a0: 684c 18bf 1ad5 5bbf 4a06 073f e10f c0bf
000001b0: 774d ba3f c0f0 34bf 69ae d7be d775 2bbf
000001c0: 3164 aa3e 5831 30bf 8a88 ebbd 6143 cd3e
000001d0: 276a d6bd c61f d53e 1715 3dbd 6554 d7bd
000001e0: 714d b1bf bef5 febc 912b 1dbe 94ca e2be
000001f0: dda1 593f 9811 373f 856b 103f 97b4 703f
00000200: ff45 c53f 154f 19bf 75dc 5fbf 166c efbd
00000210: 05a5 e03f adc7 10bf 5a13 a43d 694c 80bf
00000220: b719 01bf 9063 53bf 4d3d 04bf 5c9e 00bd
00000230: b1b0 08bf fb55 acbf e790 10bf d5c4 88bf
00000240: 286f 83be 8a5a 77bf eb85 603d b997 2a3f
00000250: 6fe4 543e ccd8 7ebf 9612 2ebf f6aa 7b3f
00000260: 669f 20bf 6454 90be dae9 5dbf 48a3 dcbf
00000270: 08e4 c83f 57f3 abbe 094a 5cc0 8b57 8cbf
00000280: cfe4 653f 5c16 403f cb49 823f a4cc 4d3f
00000290: c67d 24bf 9735 563e 1a9a db3e b3eb 2a3f
000002a0: 9b00 a4be 4360 5f3f 6ca1 68be e583 843f
000002b0: 13c6 363f 830e b7be e73d c73e ec7e a63e
000002c0: 30b7 d8bd 1593 e33e 81fd b83d db49 acbe
000002d0: 1048 fa3e f9d8 82bf 4717 1c3f af84 a33f
000002e0: f3ce 883f 42eb 2cbf 72a4 883f 5cf2 d23e
000002f0: 4794 103e dd57 5dbf 6d66 bcbf d07f ae3f
00000300: 485b d23f c279 f33e 1dcf a73d 2412 9abe
00000310: 5356 083f e97e 8abe 7d5c a93f 61ea 173e
00000320: e48a 33bf a623 c13e a3c6 80bf d671 b9bf
00000330: 988d 8c3f c46a 8abf b1f8 ccbe fc6f 953d
00000340: 8417 b73e a86f 863e 59d3 b93c e8d6 723f
00000350: 4434 53bf ec4a 333e f7ea ba3e 6fe4 3a3f
00000360: e6ac a7be 20f3 de3f de98 69bf 243c 0ac0
00000370: 4754 a43f 8f20 523f cd00 a3bf f108 8abe
00000380: 30a5 ca3f c3d8 7a3f 12a4 e2be ae30 f83f
00000390: c0f6 98bf e81e 533f 174a 11c0 aa29 3fbf
000003a0: 73f4 0d3f 0789 b2be 7285 4dbf f152 8d3f
000003b0: 8d26 dc3e b7c3 903f 5fb8 a83f 83c4 51bf
000003c0: 4991 bf3f a465 52bf 69d4 693f b1bb bf3f
000003d0: b351 fb3f 76d1 a7bf 3afb c0bf 6b95 03bf
000003e0: 8f04 03bf 71e1 903f 618b e6bd bc95 8cbe
000003f0: b02a b03f 32df 3e3c cec0 9a3e 0d06 b53e
0.21960647 0.9563627 -0.13437085 1.3624665 0.35447758 -1.5622113 1.6782947 -0.21111481
0.29210493 0.64487636 2.1659477 0.38924322 1.536405 -0.2181173 -0.5450164 0.29720077
-1.0402085 -1.2061821 0.8958281 1.0862083 -0.4475255 1.167453 1.0796899 -0.7179216
-0.18490167 0.338913 1.4718897 -0.7594955 0.38142532 1.2016454 -0.7823108 -0.597529
0.45778123 0.868643 -1.5987931 -0.2565622 0.1944571 1.4654783 -0.00056462036 -0.26215994
0.4555739 0.02698892 0.09843399 -0.33107406 0.359424 0.5219733 0.41162294 -0.45248652
2.023197 1.215544 0.2668888 0.923054 0.26599252 -1.6501384 0.51205343 -1.0392472
-1.8137379 0.68111026 -1.378462 -0.08979206 0.19171321 -1.6714045 2.5748072 -0.91062284
2.2316864 0.44097373 0.5532439 -0.65104514 0.87213004 1.4114949 -1.8116217 -0.9069896
1.7715358 -2.34023 0.62084633 -1.1754131 -0.18445009 0.9934177 0.09864734 -0.91718185
1.089098 -2.983542 0.28406838 0.5232851 2.298542 -1.440921 1.196099 -0.37679252
0.8170638 1.6466053 -0.5538466 0.6430117 -1.6063448 2.1808653 -0.09790909 0.2766115
-1.2059555 -0.63789696 -0.7021637 0.6619489 0.18677461 -0.9603211 -1.0854617 -0.106767446
-0.59491587 -0.8587204 0.5274397 -1.5004846 1.455489 -0.70679855 -0.42125252 -0.66976684
0.33279565 -0.6882529 -0.11500652 0.4009047 -0.10469466 0.41625804 -0.04616269 -0.10514144
-1.3851758 -0.031123038 -0.1534865 -0.4429518 0.8501261 0.7151122 0.5641406 0.9402556
1.5411986 -0.59886295 -0.87445766 -0.11690538 1.755036 -0.5655468 0.080115035 -1.0023319
-0.5042986 -0.82573795 -0.5165604 -0.031401023 -0.5339461 -1.3463739 -0.56471103 -1.0685068
-0.25670743 -0.96622527 0.054815214 0.6663776 0.20790266 -0.99549556 -0.6799711 0.9830774
-0.6274322 -0.28189385 -0.86684954 -1.723733 1.569459 -0.3358409 -3.4420187 -1.0964216
0.8980226 0.7503412 1.017877 0.8039038 -0.64254415 0.2091888 0.42891008 0.667659
-0.32031712 0.8725626 -0.22717828 1.0352751 0.7139599 -0.3575326 0.38914415 0.3251871
-0.10581815 0.44448152 0.09032727 -0.33650097 0.48883104 -1.0222465 0.6097302 1.2774867
1.0688156 -0.67546475 1.0675185 0.4120053 0.14119063 -0.86462194 -1.4718758 1.3632755
1.6434107 0.4755383 0.081938006 -0.30091965 0.5325672 -0.2704995 1.323135 0.14835502
-0.70133805 0.3772251 -1.0060619 -1.4487865 1.0980711 -1.0813832 -0.40033486 0.0729675
0.35760128 0.26257062 0.022683786 0.9485917 -0.82501626 0.17509049 0.3650739 0.7300481
-0.327491 1.7417946 -0.9124888 -2.1599207 1.283822 0.8208093 -1.2734619 -0.26959947
1.5831661 0.97987 -0.442658 1.9389856 -1.1950302 0.82469034 -2.270147 -0.7467295
0.55451125 -0.3487017 -0.80281746 1.1040937 0.42998162 1.1309727 1.3181266 -0.8194048
1.4966213 -0.8218634 0.9133974 1.4979154 1.9634308 -1.3110797 -1.5076668 -0.5139987
-0.5117883 1.1318799 -0.11257053 -0.27457988 1.3763027 0.011649894 0.30225223 0.3535618

genre_embedding.weight f4 [14, 16]
00000000: 5e51 503d 9afa 08be 6f30 c3be d5b9 b7be
00000010: f7b4 6bbf fe11 993f d122 33bf 8fd4 a1be
00000020: 75d2 1a3f 73de 6bbf afff 723f 73ea 9a3f
00000030: 0278 c9be 1ead 23be af3c 23bf 5cdb 7fbf
00000040: 7421 ba3f 2d5e 00bf 34b9 a6be cfef 693d
00000050: 9cef 3f3e b63f 62bf 9663 30be 9318 9dbe
00000060: ef06 4c3e 9d5d 4b3f deb2 71bf e67f af3d
00000070: fe0d 7a3f e430 383e 2b3f 893f f9de 39bf
00000080: e795 c1be 0f99 23bf de46 66bf 6e9c cf3f
00000090: aebf d2be f565 71bf 3f12 86bf ff7a 1e3e
000000a0: 9a51 393f 4dc7 00c0 dc16 873e 6460 b03c
000000b0: 4885 90be f79e 8b3f 92d0 46be 44b9 913f
000000c0: 383c 15c0 b697 56bd 1347 8c3e 95ff b13a
000000d0: 6a60 dbbe e97a 993f 6086 943f 108c e8be
000000e0: 5c04 573e 70a7 da3f 8dc8 ce3c 5aa5 a53e
000000f0: 0f61 0740 1c59 31bf bb65 3fbf bb90 1d3f
00000100: 053a 5b3f 70e0 a13e acc5 adbf 4db5 12bf
00000110: 1f9f 3fbf ea51 a7bf 4c48 3dbe 4403 8fbf
00000120: 8bbd eebe 12ae 4a3f a7ec 483f e312 2f3f
00000130: 9e42 b43f dbee 25bf 8ce1 a9be b9e8 143e
00000140: e8e4 aa3f 7e28 3ebc fe2d 863c 55c3 50bd
00000150: 219d cebe 0887 713e 1142 713f 2dd4 4ebf
00000160: 107b b3bf 8fc8 98be 0443 93bf 71e8 89bf
00000170: 113e 0840 50b7 1f3f b014 a0be 4cf6 2340
00000180: 7340 21c0 a688 4f3f e2e9 c0bf fe72 0cbf
00000190: 000f 62bf 3d07 e1bf 99bb b6be 8e06 0640
000001a0: ce66 9a3f 63a3 ce3f 34a6 c33e ae70 08be
000001b0: 43ef edbe df32 ec3d b21e 3dbf a6fb 55bf
000001c0: 7415 583d 5124 a73e 8e2f 14bf 6971 a0bf
000001d0: 9195 563c f3b8 edbd f23c aa3f dc94 783e
000001e0: 3d86 89be 4bc6 873f 32e0 4a3f 55ec 083f
000001f0: 3584 ad3e b6ba 3bbf a30e 51bf cbc8 693f
00000200: acff 213f 79d3 eb3d b39e e2be 8796 e5be
00000210: bbda 1c3f 1b29 773f 36c9 263e f8d2 b93e
00000220: 2d6c 46bf 2e35 a23f ac74 2f3c 006b a83e
00000230: c133 943f b06c eebf 0348 cd3e 9321 a33f
00000240: e814 a13e b581 09bf 039a 9c3f 1643 a53f
00000250: 758e 493f e51c 493f e1ee 3d40 e21f d33f
00000260: 2d7a 513d f642 5ebf 783e d2bd 3c4c 0fc0
00000270: b0f4 203f ea29 90bf b8e2 00bc 05a6 10bf
00000280: e44b 56be af00 413f 47af 743f b27a 693d
00000290: bd88 293f 4562 b7bf d516 f93f 4078 f23f
000002a0: b021 413f 11b1 1e3f 2619 893f b57b e03e
000002b0: 1dac 583f e1ac 4cbf 45bd 073f 9972 af3e
000002c0: f7e9 823f 35e6 823f e570 27be 9f67 993e
000002d0: e15c 4dbf 70bf 41bf 3eaf 8ebd 0213 f23f
000002e0: f00a 683e 9de9 6a3f 54f2 2e3e 60bd 8c3f
000002f0: 12b0 973f 6242 29bf 87ec 24c0 8619 0c3e
00000300: 664b 3abf 9260 9ebf 1b2d 9cbe 5aa5 40c0
00000310: 9d98 e23d 3de1 5cbf 8f87 b73f 78c6 0c3e
00000320: debe d13f d0f7 23bf 06a7 b43f 7bfe 9d3f
00000330: 1dd0 613f e45c 57bf c0b9 53bf bcd3 1c3b
00000340: 95e7 0a3d 66fa 0d3f f970 bf3f 9ae8 e03f
00000350: d99d ccbe 657d f53f 2ffc a73e 96d1 f9bc
00000360: 3967 0940 8ba8 333d d477 733f a803 0cbf
00000370: 7060 38bf e067 fd3f 2c43 f33f 001a c0be
0.050858848 -0.13376847 -0.3812289 -0.35883966 -0.92073005 1.1958616 -0.69975 -0.31607482
0.6047738 -0.92136306 0.9492139 1.2102798 -0.3934937 -0.15984008 -0.6376447 -0.9994409
1.4541459 -0.501437 -0.32563174 0.057113465 0.18743747 -0.88378465 -0.17225489 -0.3068281
0.1992452 0.7943972 -0.94413555 0.085693166 0.976776 0.179874 1.0722402 -0.72605854
-0.3780968 -0.63905424 -0.89951885 1.6219614 -0.41161865 -0.942962 -1.0474318 0.15476607
0.7239014 -2.0121644 0.26384628 0.021530338 -0.28226686 1.0907887 -0.19415501 1.1384664
-2.3318005 -0.052390777 0.27397975 0.0013580198 -0.42846996 1.1990634 1.1603508 -0.4541936
0.20997757 1.7082348 0.025242114 0.32352716 2.115299 -0.69276595 -0.74764603 0.61548966
0.85635406 0.31616545 -1.357595 -0.57307893 -0.74852175 -1.3071873 -0.1848461 -1.1172872
-0.46628985 0.7917186 0.784861 0.68388194 1.408283 -0.6481759 -0.3317989 0.14541902
1.3351107 -0.011606334 0.016379353 -0.050967533 -0.40354255 0.23586667 0.94241434 -0.80792505
-1.4021931 -0.29840514 -1.1504827 -1.077406 2.1287882 0.6238909 -0.31265783 2.5619078
-2.5195587 0.81067884 -1.5071375 -0.54862964 -0.8830414 -1.7580334 -0.3569 2.09415
1.2062624 1.6143612 0.3821274 -0.13324234 -0.46471605 0.115331404 -0.7387496 -0.8358711
0.052754834 0.32644895 -0.5788506 -1.253461 0.013097183 -0.11607542 1.3299849 0.24275535
-0.26860228 1.0607389 0.79248345 0.53485614 0.33889928 -0.73331773 -0.8166296 0.9132201
0.6328075 0.115149446 -0.44261703 -0.44841406 0.61271256 0.96547097 0.16287693 0.3629377
-0.77508813 1.2672479 0.010708969 0.32894135 1.1578294 -1.8626919 0.40094003 1.2744621
0.31461263 -0.5371354 1.2234501 1.2911098 0.78733 0.78559715 2.967705 1.6494105
0.051141907 -0.86820924 -0.10265821 -2.239028 0.62873363 -1.1262791 -0.007866554 -0.56503326
-0.20927387 0.7539167 0.9557995 0.057001777 0.6622427 -1.4326864 1.9460093 1.8942947
0.7544203 0.6198893 1.07108 0.4384438 0.84637624 -0.7995129 0.5302318 0.3426712
1.022765 1.0226504 -0.1635166 0.2996187 -0.80219847 -0.75682735 -0.069670185 1.8912051
0.22660422 0.91762716 0.17084628 1.0995293 1.1850607 -0.6611692 -2.5769365 0.13681611
-0.727713 -1.2373221 -0.30503163 -3.0100923 0.11064265 -0.86281186 1.4338244 0.13747585
1.6386373 -0.64050007 1.4113472 1.2343286 0.8820818 -0.84126115 -0.82705307 0.0023929914
0.03391226 0.554602 1.4956352 1.7570984 -0.39964178 1.9178892 0.32809588 -0.030495446
2.1469252 0.043861907 0.9510472 -0.5469308 -0.7202215 1.9797325 1.9004874 -0.37519836
